Model: "sequential_1"
_________________________________________________________________
Layer (type)                 Output Shape              Param #   
=================================================================
batch_normalization_1 (Batch (None, 4, 22)             88        
_________________________________________________________________
time_distributed_1 (TimeDist (None, 4, 64)             1472      
_________________________________________________________________
batch_normalization_2 (Batch (None, 4, 64)             256       
_________________________________________________________________
time_distributed_2 (TimeDist (None, 4, 64)             4160      
_________________________________________________________________
flatten_1 (Flatten)          (None, 256)               0         
_________________________________________________________________
repeat_vector_1 (RepeatVecto (None, 1, 256)            0         
_________________________________________________________________
time_distributed_3 (TimeDist (None, 1, 64)             16448     
_________________________________________________________________
batch_normalization_3 (Batch (None, 1, 64)             256       
_________________________________________________________________
time_distributed_4 (TimeDist (None, 1, 22)             1430      
_________________________________________________________________
flatten_2 (Flatten)          (None, 22)                0         
=================================================================
Total params: 24,110
Trainable params: 23,810
Non-trainable params: 300
_________________________________________________________________
